…
2019-03-03 01:10:44.235412: I tensorflow/core/common_runtime/gpu/gpu_device.cc:1115] Created TensorFlow device (/job:localhost/replica:0/task:0/device:GPU:2 with 7623 MB memory) -> physical GPU (device: 2, name: GeForce GTX 1070, pci bus id: 0000:05:00.0, compute capability: 6.1)
2019-03-03 01:10:44.235685: I tensorflow/core/common_runtime/gpu/gpu_device.cc:1115] Created TensorFlow device (/job:localhost/replica:0/task:0/device:GPU:3 with 7623 MB memory) -> physical GPU (device: 3, name: GeForce GTX 1070, pci bus id: 0000:06:00.0, compute capability: 6.1)
__________________________________________________________________________________________________
Layer (type)                    Output Shape         Param #     Connected to
==================================================================================================
tempo_input (InputLayer)        (None, 1)            0
__________________________________________________________________________________________________
flux_input (InputLayer)         (None, 7)            0
__________________________________________________________________________________________________
rolloff_input (InputLayer)      (None, 7)            0
__________________________________________________________________________________________________
mel_input (InputLayer)          (None, 128, 7)       0
__________________________________________________________________________________________________
contrast_input (InputLayer)     (None, 10, 7)        0
__________________________________________________________________________________________________
chroma_input (InputLayer)       (None, 12, 7)        0
__________________________________________________________________________________________________
rms_fractional_input (InputLaye (None, 7)            0
__________________________________________________________________________________________________
lambda_1 (Lambda)               (None, 1)            0           tempo_input[0][0]
__________________________________________________________________________________________________
lambda_2 (Lambda)               (None, 7)            0           flux_input[0][0]
__________________________________________________________________________________________________
lambda_3 (Lambda)               (None, 7)            0           rolloff_input[0][0]
__________________________________________________________________________________________________
lambda_4 (Lambda)               (None, 128, 7)       0           mel_input[0][0]
__________________________________________________________________________________________________
lambda_5 (Lambda)               (None, 10, 7)        0           contrast_input[0][0]
__________________________________________________________________________________________________
lambda_6 (Lambda)               (None, 12, 7)        0           chroma_input[0][0]
__________________________________________________________________________________________________
lambda_7 (Lambda)               (None, 7)            0           rms_fractional_input[0][0]
__________________________________________________________________________________________________
lambda_8 (Lambda)               (None, 1)            0           tempo_input[0][0]
__________________________________________________________________________________________________
lambda_9 (Lambda)               (None, 7)            0           flux_input[0][0]
__________________________________________________________________________________________________
lambda_10 (Lambda)              (None, 7)            0           rolloff_input[0][0]
__________________________________________________________________________________________________
lambda_11 (Lambda)              (None, 128, 7)       0           mel_input[0][0]
__________________________________________________________________________________________________
lambda_12 (Lambda)              (None, 10, 7)        0           contrast_input[0][0]
__________________________________________________________________________________________________
lambda_13 (Lambda)              (None, 12, 7)        0           chroma_input[0][0]
__________________________________________________________________________________________________
lambda_14 (Lambda)              (None, 7)            0           rms_fractional_input[0][0]
__________________________________________________________________________________________________
lambda_15 (Lambda)              (None, 1)            0           tempo_input[0][0]
__________________________________________________________________________________________________
lambda_16 (Lambda)              (None, 7)            0           flux_input[0][0]
__________________________________________________________________________________________________
lambda_17 (Lambda)              (None, 7)            0           rolloff_input[0][0]
__________________________________________________________________________________________________
lambda_18 (Lambda)              (None, 128, 7)       0           mel_input[0][0]
__________________________________________________________________________________________________
lambda_19 (Lambda)              (None, 10, 7)        0           contrast_input[0][0]
__________________________________________________________________________________________________
lambda_20 (Lambda)              (None, 12, 7)        0           chroma_input[0][0]
__________________________________________________________________________________________________
lambda_21 (Lambda)              (None, 7)            0           rms_fractional_input[0][0]
__________________________________________________________________________________________________
lambda_22 (Lambda)              (None, 1)            0           tempo_input[0][0]
__________________________________________________________________________________________________
lambda_23 (Lambda)              (None, 7)            0           flux_input[0][0]
__________________________________________________________________________________________________
lambda_24 (Lambda)              (None, 7)            0           rolloff_input[0][0]
__________________________________________________________________________________________________
lambda_25 (Lambda)              (None, 128, 7)       0           mel_input[0][0]
__________________________________________________________________________________________________
lambda_26 (Lambda)              (None, 10, 7)        0           contrast_input[0][0]
__________________________________________________________________________________________________
lambda_27 (Lambda)              (None, 12, 7)        0           chroma_input[0][0]
__________________________________________________________________________________________________
lambda_28 (Lambda)              (None, 7)            0           rms_fractional_input[0][0]
__________________________________________________________________________________________________
sequential_8 (Sequential)       (None, 1)            20832553    lambda_1[0][0]
                                                                 lambda_2[0][0]
                                                                 lambda_3[0][0]
                                                                 lambda_4[0][0]
                                                                 lambda_5[0][0]
                                                                 lambda_6[0][0]
…
