…
2019-02-28 23:34:06.121712: I C:\Users\User\Source\Repos\tensorflow\tensorflow\core\common_runtime\gpu\gpu_device.cc:1195] Creating TensorFlow device (/device:GPU:0) -> (device: 0, name: GeForce GTX 1080 Ti, pci bus id: 0000:08:00.0, compute capability: 6.1)
2019-02-28 23:34:06.121962: I C:\Users\User\Source\Repos\tensorflow\tensorflow\core\common_runtime\gpu\gpu_device.cc:1195] Creating TensorFlow device (/device:GPU:1) -> (device: 1, name: GeForce GTX 1080 Ti, pci bus id: 0000:09:00.0, compute capability: 6.1)
__________________________________________________________________________________________________
Layer (type)                    Output Shape         Param #     Connected to
==================================================================================================
tempo_input (InputLayer)        (None, 1)            0
__________________________________________________________________________________________________
flux_input (InputLayer)         (None, 7)            0
__________________________________________________________________________________________________
rolloff_input (InputLayer)      (None, 7)            0
__________________________________________________________________________________________________
mel_input (InputLayer)          (None, 128, 7)       0
__________________________________________________________________________________________________
contrast_input (InputLayer)     (None, 10, 7)        0
__________________________________________________________________________________________________
chroma_input (InputLayer)       (None, 12, 7)        0
__________________________________________________________________________________________________
rms_fractional_input (InputLaye (None, 7)            0
__________________________________________________________________________________________________
lambda_1 (Lambda)               (None, 1)            0           tempo_input[0][0]
__________________________________________________________________________________________________
lambda_2 (Lambda)               (None, 7)            0           flux_input[0][0]
__________________________________________________________________________________________________
lambda_3 (Lambda)               (None, 7)            0           rolloff_input[0][0]
__________________________________________________________________________________________________
lambda_4 (Lambda)               (None, 128, 7)       0           mel_input[0][0]
__________________________________________________________________________________________________
lambda_5 (Lambda)               (None, 10, 7)        0           contrast_input[0][0]
__________________________________________________________________________________________________
lambda_6 (Lambda)               (None, 12, 7)        0           chroma_input[0][0]
__________________________________________________________________________________________________
lambda_7 (Lambda)               (None, 7)            0           rms_fractional_input[0][0]
__________________________________________________________________________________________________
lambda_8 (Lambda)               (None, 1)            0           tempo_input[0][0]
__________________________________________________________________________________________________
lambda_9 (Lambda)               (None, 7)            0           flux_input[0][0]
__________________________________________________________________________________________________
lambda_10 (Lambda)              (None, 7)            0           rolloff_input[0][0]
__________________________________________________________________________________________________
lambda_11 (Lambda)              (None, 128, 7)       0           mel_input[0][0]
__________________________________________________________________________________________________
lambda_12 (Lambda)              (None, 10, 7)        0           contrast_input[0][0]
__________________________________________________________________________________________________
lambda_13 (Lambda)              (None, 12, 7)        0           chroma_input[0][0]
__________________________________________________________________________________________________
lambda_14 (Lambda)              (None, 7)            0           rms_fractional_input[0][0]
__________________________________________________________________________________________________
sequential_8 (Sequential)       (None, 1)            53426177    lambda_1[0][0]
                                                                 lambda_2[0][0]
                                                                 lambda_3[0][0]
                                                                 lambda_4[0][0]
                                                                 lambda_5[0][0]
                                                                 lambda_6[0][0]
…
